src/main/resources/base/cursednet.pth (torch_old, 38233 bytes, 43 tensors)

Conv1.conv.0.weight f4 [16, 2, 3]
0	0xbf40dcb8	-0.7533679
1	0xbe364f5e	-0.17803714
2	0xbdb5fe1e	-0.0888636
3	0x3a300e7d	0.0006716026
4	0xbe84c390	-0.25930452
5	0xbe0198f3	-0.12656002
6	0xbede6b3c	-0.43441188
7	0x3f20f757	0.6287741
8	0xbd044f4f	-0.032302197
9	0x3e3ce1bb	0.18445484
10	0xbe62ec42	-0.22160438
11	0x3edfb04c	0.4368919
12	0x3ecd05d0	0.40043497
13	0x3dd6d8a3	0.10490539
14	0x3e8974d2	0.2684694
15	0xbf0936a6	-0.5359901
16	0x3dbafa41	0.091297634
17	0xbee9cf4a	-0.45665962
18	0xbe48249a	-0.19545212
19	0x3e9c4a25	0.30525318
20	0x3e3abb7f	0.18235587
21	0x3f04b9b0	0.51845837
22	0x3d221f17	0.03958043
23	0xbdea4d01	-0.114404686
24	0x3f04d132	0.51881707
25	0x3e4c5706	0.19955072
26	0x3e849188	0.25892282
27	0xbf06bba0	-0.52630043
28	0x3e58663e	0.21132752
29	0x3d9d3d37	0.076776914
30	0xbecd79a1	-0.40131858
31	0x3d14b20b	0.036302608
32	0x3c9a5cc8	0.01884307
33	0xbf27667a	-0.6539074
34	0xbe82f9ce	-0.2558121
35	0xbe10cf26	-0.14141521
36	0x3f193540	0.5984688
37	0xbf176a5e	-0.5914668
38	0x3df1dfec	0.11810288
39	0x3ec96db0	0.39341497
40	0x3f05b633	0.5223114
41	0x3e2780cf	0.1635773
42	0x3d5a7bf7	0.05334088
43	0x3c21c5e0	0.009873837
44	0x3e2a76a1	0.16646816
45	0x3f2f4fde	0.6848124
46	0x3e39cf08	0.18145382
47	0xbcd2192d	-0.02564677
48	0xbea58937	-0.3233125
49	0x3e29b56b	0.16573112
50	0x3cfc9211	0.030831369
51	0xbf29df54	-0.66356397
52	0x3ec980e4	0.39356148
53	0xbed79f40	-0.42113686
54	0x3e9cd9d4	0.3063494
55	0xbf1c8dc0	-0.61153793
56	0xbea96fc7	-0.33093092
57	0x3f4ad4d8	0.79231024
58	0xbea35ef5	-0.31908384
59	0x3e3d01c8	0.1845771
60	0xbecbbb44	-0.3979131
61	0x3ebf0883	0.3731118
62	0x3f082e22	0.53195393
63	0x3f2dfe8c	0.6796653
64	0x3dd1fbf1	0.10253132
65	0xbebc62f0	-0.36794233
66	0x3f2ddeaa	0.67917883
67	0x3d02db41	0.031947378
68	0x3eb399ad	0.35078183
69	0x3ede50b4	0.43420947
70	0xbe6fb9ae	-0.23410675
71	0x3dee2453	0.11628022
72	0xbee677c8	-0.4501326
73	0xbe3a5277	-0.1819552
74	0xbed30378	-0.41213584
75	0x3cefe5f3	0.029284453
76	0xbecfe66c	-0.40605485
77	0xbe68d891	-0.22738864
78	0x3f28da46	0.6595806
79	0xbeaee8bc	-0.34161937
80	0x3c47c02d	0.012191814
81	0x3c7fd6be	0.015615163
82	0xbe2f1421	-0.17097522
83	0x3ed88d38	0.4229524
84	0x3f268beb	0.6505725
85	0xbe21a04a	-0.15783802
86	0xbec9894f	-0.3936257
87	0x3db8f157	0.09030407
88	0xbef93caf	-0.4867911
89	0xbdd4a7df	-0.10383581
90	0xbf721220	-0.94558907
91	0xbe272032	-0.16320875
92	0x3d8f2678	0.06989759
93	0xbe8a316c	-0.2699083
94	0xbe966bfe	-0.29379267
95	0x3f22c77e	0.6358565

Conv1.conv.0.bias f4 [16]
0	0x3cf7cf4f	0.03025022
1	0x3e5582a9	0.20850624
2	0x3e90835f	0.28225228
3	0x3e85e41f	0.26150605
4	0xbc737e3b	-0.014861639
5	0x3e25f449	0.16206469
6	0xbe1a942e	-0.15095589
7	0x3ed14587	0.40873358
8	0x3f08eed6	0.53489435
9	0xbef40428	-0.4765942
10	0xbe1b454d	-0.15163155
11	0xbe6fbf9a	-0.23412934
12	0x3e31fec4	0.17382342
13	0x3ea94b39	0.33065203
14	0xbe98cd54	-0.29844153
15	0x3d0a8a1f	0.03382313

Conv1.conv.1.weight f4 [16]
0	0x3fecd25d	1.8501698
1	0x3f0b2278	0.5434947
2	0x3f95460c	1.1662002
3	0x3f93159f	1.1490973
4	0x3fa37322	1.2769511
5	0x3fd5d461	1.6705438
6	0x3fb02275	1.3760515
7	0x3fa974f1	1.3238813
8	0x3f2409a9	0.6407724
9	0x3f9620fe	1.1728818
10	0x3f8b405f	1.087902
11	0x3f97485c	1.1818957
12	0x3f98c019	1.1933624
13	0x3f68f125	0.9099296
14	0x3f9fada5	1.2474867
15	0x3f8349a1	1.0256845

Conv1.conv.1.bias f4 [16]
0	0xbc1bd55a	-0.009511316
1	0x3d4f26e6	0.050574206
2	0x3dae43b5	0.08509008
3	0x3e861b7a	0.26192838
4	0x3d24f6a1	0.040274266
5	0x3d085150	0.03328067
6	0xbd66dc2b	-0.056362312
7	0x3d0909db	0.033456665
8	0x3cef7c93	0.029234206
9	0x3ced2a27	0.028950764
10	0xbe85749d	-0.2606553
11	0x3cd3b7cd	0.025844479
12	0xb90b537e	-0.00013287176
13	0x3cedeb1c	0.029042773
14	0xbe0a1e03	-0.13488011
15	0x3ba9b8a8	0.0051794834

Conv1.conv.1.running_mean f4 [16]
0	0x3cf8f461	0.030389966
1	0x3e555280	0.20832253
2	0x3e9085db	0.28227124
3	0x3e85e13a	0.26148397
4	0xbc69ef97	-0.014278314
5	0x3e261f3e	0.16222855
6	0xbe1ab88c	-0.15109462
7	0x3ed1745f	0.40909097
8	0x3f08f3d1	0.53497034
9	0xbef405a2	-0.47660547
10	0xbe1b01ca	-0.15137401
11	0xbe6f1589	-0.23348059
12	0x3e31f247	0.17377578
13	0x3ea95c39	0.33078173
14	0xbe98f222	-0.29872233
15	0x3d0b1fc2	0.033965833

Conv1.conv.1.running_var f4 [16]
0	0x3847a126	4.759538e-05
1	0x37924f59	1.7441505e-05
2	0x382f34ef	4.177255e-05
3	0x37e68a57	2.7482556e-05
4	0x3826c61d	3.976199e-05
5	0x384a7e46	4.8278154e-05
6	0x38588c74	5.162922e-05
7	0x38215ba3	3.8470735e-05
8	0x37a015b6	1.9083596e-05
9	0x384e50d3	4.91895e-05
10	0x389becda	7.435093e-05
11	0x3834559f	4.2995085e-05
12	0x3850102d	4.960613e-05
13	0x37b52543	2.1594233e-05
14	0x384a8913	4.8288213e-05
15	0x38b2e31a	8.5300024e-05

Conv2.conv.0.weight f4 [32, 16, 3]
0	0xbdf02734	-0.117262274
1	0xbdb30279	-0.08740706
2	0xbe74195e	-0.23837802
3	0x3ed3a472	0.413364
4	0xbe9866e2	-0.29765993
5	0xbc86857f	-0.016421078
6	0x3e66529f	0.22492455
7	0x3e8044d7	0.2505252
8	0x3e18afaf	0.14910768
9	0x3ee73df1	0.45164445
10	0x3e2af1d0	0.16693807
11	0xbe38cc06	-0.18046579
12	0xbca47e27	-0.020079685
13	0xbd23b5af	-0.03996819
14	0x3dde58b3	0.10856762
15	0xbda7cdbd	-0.08193538
16	0xbe6d753e	-0.23189256
17	0xbd0c7f2d	-0.03430097
18	0xbd29db61	-0.04146898
19	0xbe4123ce	-0.18861315
20	0x3e70afad	0.23504515
21	0x3db39632	0.08768882
22	0xbdce134b	-0.100622736
23	0x3d5678a5	0.05236115
24	0xbdd5a6ac	-0.10432181
25	0xbdf777a1	-0.12083364
26	0xbe0a2e03	-0.13494115
27	0xbdbf8c85	-0.09352974
28	0xbe2054fd	-0.1565742
29	0x3e11ff40	0.14257526
30	0xbe93af6a	-0.28844768
31	0x3d53f841	0.051750425
32	0xbe47cb43	-0.19511132
33	0x3d03656b	0.03207914
34	0x3d9375e2	0.07200219
35	0x3eb089ea	0.3448022
36	0xbe683b62	-0.22678903
37	0xbd66e9c0	-0.056375265
38	0xbe59804c	-0.21240348
39	0xbe7368f4	-0.23770505
40	0x3e9deff8	0.30847144
41	0x3e47f004	0.19525152
42	0xbe1194bc	-0.14216894
43	0xbde854ff	-0.11344337
44	0x3ed2bb79	0.41158655
45	0x3c77106a	0.015079597
46	0xbd1cecc7	-0.038311746
47	0xbf0169fa	-0.5055233
48	0x3d75e35d	0.060031284
49	0xbdc87c1b	-0.09789296
50	0x3e017777	0.12643228
51	0x3d237b4a	0.0399125
52	0x3e0217d5	0.12704404
53	0xbcab6dd8	-0.020926401
54	0x3e26b3c9	0.1627952
55	0xbd47078b	-0.048591178
56	0xbd231480	-0.039814472
57	0xbdad0fc6	-0.08450274
58	0xbc9f32c8	-0.019433394
59	0xbce62e46	-0.028098237
60	0xbe04d73d	-0.12972732
61	0x3d3d1104	0.046158805
62	0xbc4a58e3	-0.012350294
63	0xbeae4677	-0.34038135
64	0xbdd90558	-0.10596722
65	0x3dcf4bc2	0.101218715
66	0xbdd0e5f6	-0.102001116
67	0xbe464698	-0.19362867
68	0xbcad7662	-0.021174613
69	0x3ea84a38	0.32869124
70	0xbdc92a8c	-0.09822568
71	0xbc4041e0	-0.011734456
72	0xbe111d16	-0.14171252
73	0x3eba38fd	0.36371604
74	0xbd8bc104	-0.06823924
75	0x3c3e9f93	0.011634725
76	0x3e5d8bb8	0.2163533
77	0xbda6f136	-0.08151476
78	0x3daff536	0.08591692
79	0xbe652270	-0.22376418
80	0xbca54bc1	-0.020177724
81	0x3e1c3894	0.15255958
82	0x3eb184d3	0.3467165
83	0x3d85fe4c	0.06542644
84	0xbe3d4ad0	-0.1848557
85	0xbdf3a3ef	-0.11896502
86	0x3e0fd103	0.14044575
87	0x3e9e6b31	0.30941156
88	0x3e15b8b8	0.14621246
89	0x3d5a23d8	0.05325684
90	0xbcd49882	-0.025951628
91	0xbe3435a0	-0.17598581
92	0xbd83358a	-0.06406696
93	0x3d9d7ea6	0.07690172
94	0xbdea8157	-0.11450451
95	0x3d9d3ed6	0.07678001
96	0x3b99d9ba	0.0046951445
97	0xbe0172e0	-0.12641478
98	0xbccb2a97	-0.024800582
99	0x3db388ce	0.08766328
100	0x3e41b804	0.18917853
101	0xbd707eb2	-0.058714576
102	0x3d4f72f1	0.050646726
103	0x3dd21973	0.1025876
104	0x3c9d6e82	0.019217733
105	0xbe4f4572	-0.20241335
106	0xbe1d1b75	-0.15342505
107	0x3db85470	0.0900048
108	0xbc9bc0c2	-0.019012813
109	0x3e0bb511	0.1364329
110	0xbcca2db1	-0.02467999
111	0xbca760e8	-0.02043195
112	0xbdaf9775	-0.0857381
113	0x3db079c0	0.08616972
114	0x3cd437dd	0.025905544
115	0xbd8f9051	-0.07009948
116	0x3cc08ff7	0.023506148
117	0x3d9ae185	0.07562546
118	0xbdd645b5	-0.10462514
119	0x3d0216cf	0.031760033
120	0xbd065ab4	-0.032801345
121	0x3d33622d	0.0437948
122	0xbd729940	-0.05922818
123	0x3db22012	0.08697523
124	0x3d877dc5	0.066157855
125	0xbdd35665	-0.10319213
126	0xbe3d6673	-0.18496113
127	0x3b5d9520	0.003381081
128	0xbdada1bb	-0.08478113
129	0x3cc020eb	0.023453197
130	0xbe111c97	-0.14171062
131	0x3e20a232	0.15686873
132	0xbe3ce5e6	-0.18447074
133	0x3e7c758e	0.24654219
134	0xbc90f93f	-0.017696975
135	0x3e26d707	0.16292964
136	0xbe3b5695	-0.18294747
137	0x3ca1d1b3	0.019753313
138	0x3d8885cb	0.06666144
139	0xbce793be	-0.028268691
140	0x3d5a7d3f	0.0533421
141	0x3c8e4575	0.017367104
142	0x3bd96900	0.0066348314
143	0xbb47f170	-0.0030508898
144	0x3cbdb7d1	0.02315894
145	0x3d0b3b11	0.033991877
146	0xbe03e7cd	-0.12881394
147	0x3c26fc2b	0.0101919575
148	0xbe22bec7	-0.15893088
149	0x3e6b4591	0.22975756
150	0xbe09903c	-0.13433927
151	0x3def0d73	0.11672487
152	0x3deccedf	0.11562895
153	0x3bd51805	0.0065031075
154	0x3d1609d9	0.036630485
155	0xbd488c11	-0.048961703
156	0xbe48ca5c	-0.19608444
157	0xbc30b1a6	-0.010784542
158	0x3e426e09	0.18987288
159	0xbd7597d4	-0.059959248
160	0x3d43b9bc	0.047784552
161	0xbd8a710c	-0.06759843
162	0x3d95f198	0.07321471
163	0xbe361bad	-0.17783995
164	0xbe1a90e2	-0.15094331
165	0xbd05e040	-0.032684565
166	0xbcae2970	-0.021259993
167	0xbcc0c8a5	-0.023533175
168	0xbe33d8d4	-0.17563182
169	0x3e3fabf6	0.18717942
170	0x3e01b4e4	0.1266666
171	0x3be7056e	0.007050208
172	0xbd2758f2	-0.04085631
173	0xbe1178bb	-0.14206211
174	0xbe4bc7dc	-0.19900459
175	0x3d9c3bb3	0.07628574
176	0xbe3a2002	-0.18176273
177	0xbcdabb43	-0.026700621
178	0xbe0b2a7d	-0.13590427
179	0x3e10a525	0.14125498
180	0xbd02b9bf	-0.031915423
181	0x3e1809e9	0.1484753
182	0xbe728b6d	-0.23685999
183	0x3c2849b1	0.010271476
184	0xbcbe3ab5	-0.023221353
185	0x3d681434	0.056659892
186	0x3dc6b2be	0.09702061
187	0x3bb201bc	0.0054323357
188	0xbe299240	-0.16559696
189	0x3d9019a4	0.070361406
190	0xbe3c41a2	-0.18384412
191	0x3d09d80a	0.033653297
192	0x3d2fd19e	0.042924516
193	0xbe79a2db	-0.2437853
194	0xbca97e8c	-0.020690225
195	0xbe72ad73	-0.23698978
196	0xbe0693dc	-0.13142341
197	0xbb012c4b	-0.0019710239
198	0x3df3ce70	0.11904609
199	0x3e98fc56	0.29880017
200	0x3e1047f9	0.14089955
201	0xbd86cd3e	-0.065821156
202	0xbcc86050	-0.024459988
203	0xbe72d732	-0.23714903
204	0xbe28c42c	-0.16481084
205	0x3e656f0a	0.2240564
206	0x3e120629	0.14260162
207	0xbd46b66e	-0.048513822
208	0x3de81c83	0.11333563
209	0x3de52aa0	0.11189771
210	0xbea57208	-0.3231356
211	0x3d090231	0.033449356
212	0x3e1c4e5f	0.15264271
213	0xbdd50762	-0.10401799
214	0xbe56b017	-0.2096561
215	0xbdb8ba9a	-0.090199664
216	0x3e600031	0.21875073
217	0xbe0708c2	-0.13186935
218	0xbba9bbcf	-0.005179859
219	0xbe6fc184	-0.23413664
220	0xbe233a86	-0.15940294
221	0x3de8f08f	0.11374008
222	0x3cc97880	0.024593592
223	0xbe465548	-0.1936847
224	0x3eacac51	0.33725217
225	0x3e21d5ed	0.15804262
226	0x3ea700f1	0.32617906
227	0xbe8bb7a6	-0.2728855
228	0x3ccfbde8	0.025359109
229	0xbcd42f04	-0.025901325
230	0x3dfbca72	0.12294473
231	0xbe1a8275	-0.15088828
232	0xbea0a699	-0.31377104
233	0x3e644209	0.22290815
234	0x3e7fd1ca	0.24982372
235	0x3df6dc00	0.120536804
236	0xbbf38fb0	-0.0074329004
237	0x3e1d5251	0.15363432
238	0xba5acaec	-0.0008346278
239	0x3e206133	0.15662079
240	0xbe1bf739	-0.15231027
241	0xbdbbde51	-0.09173263
242	0x3c2c0c2c	0.010500949
243	0xbe0a9594	-0.13533622
244	0x3e99ec5d	0.30063143
245	0xbdd5a321	-0.10431505
246	0x3da88648	0.08228737
247	0xbe2eed15	-0.17082627
248	0x3cc122ec	0.023576222
249	0x3e84f8a4	0.25970948
250	0xbd654010	-0.055969298
251	0x3db9c3df	0.090705626
252	0x3df53349	0.119726725
253	0xbcfdb581	-0.030970337
254	0xbd32dadf	-0.043665763
255	0xbc671216	-0.014103433

Conv2.conv.0.bias f4 [32]
0	0x3f9bf6d8	1.2184706
1	0x3ed14c2d	0.4087843
2	0xbbe5db49	-0.007014666
3	0x3d14287f	0.036171433
4	0xbf8e47f4	-1.1115708
5	0xbd9a9d95	-0.07549588
6	0x3fb03c60	1.3768425
7	0x3f895c44	1.0731282
8	0xbf2ce13e	-0.6753119
9	0xbd388413	-0.04504783
10	0xbf570ec7	-0.84006923
11	0x3d81edaf	0.06344163
12	0x3fe237ff	1.7673339
13	0x3c5397d8	0.01291462
14	0x3dfc0ff7	0.123077326
15	0xbf09c7bf	-0.53820413
16	0x3bb6cf68	0.005578924
17	0x3e31ecf5	0.17375548
18	0x3f7906e0	0.97276115
19	0x3c014f23	0.007892403
20	0x3ce8de74	0.028426386
21	0x3cd6a01d	0.026199395
22	0x3fb70b54	1.4300332
23	0x3a7aafb1	0.0009562923
24	0xbf0cc8cd	-0.549939
25	0x3fc0cb16	1.5061977
26	0xbbbccc7f	-0.0057616825
27	0x3d39b954	0.04534276
28	0xbfa5b16e	-1.2944772
29	0xbd5c6d57	-0.053815212
30	0x40007f14	2.0077562
31	0xbf1a38a0	-0.6024265

Conv2.conv.1.weight f4 [32]
0	0x4073105b	3.7978733
1	0x3fba8b30	1.4573727
2	0x3f1bf0bf	0.60914224
3	0x3f38e9bf	0.7223167
4	0x3f8a5ff2	1.081053
5	0x3f51c5af	0.81942266
6	0x40bdf748	5.9364357
7	0x3fe0119c	1.7505374
8	0x408a941d	4.33058
9	0x3f50abce	0.81512153
10	0x3f0be10e	0.5464028
11	0x3f0ab901	0.54188544
12	0x4077e0a2	3.8730855
13	0x3f70a37d	0.93999463
14	0x409dc310	4.9300613
15	0x3fff1379	1.9927818
16	0x3f4edd49	0.80806404
17	0x3f89701f	1.0737342
18	0x3f96620b	1.174867
19	0x3f10f23c	0.5661962
20	0x3f33209d	0.6997164
21	0x3edb81a7	0.42872354
22	0x4053747f	3.3039854
23	0x3f4a2eed	0.78977853
24	0x3f58105b	0.84399956
25	0x40a719d8	5.2219048
26	0x3f8fbedf	1.1230124
27	0x3f82a00d	1.0205094
28	0x4046102e	3.0947375
29	0x3f4b2fa2	0.79369557
30	0x40a0c19b	5.0236335
31	0x401f7ea2	2.492104

Conv2.conv.1.bias f4 [32]
0	0x3d27e136	0.040986262
1	0xbdc72294	-0.09723392
2	0x3f6398e1	0.8890515
3	0xbf31190e	-0.69178855
4	0xbdbd77ac	-0.09251341
5	0xbf51c443	-0.81940097
6	0x3bca7533	0.006178522
7	0x3d968339	0.073492475
8	0x3c9d4d45	0.019201884
9	0xbe34e476	-0.17665276
10	0xbe43b1c1	-0.19110776
11	0x3d704703	0.058661472
12	0x3d24906d	0.040176798
13	0x3d9cc8f0	0.07655513
14	0xbc4992de	-0.012303082
15	0xbe12a444	-0.14320475
16	0x3df7baa3	0.12096145
17	0x3e548c59	0.20756663
18	0x3d3697e6	0.044578455
19	0x3ddebda6	0.10876016
20	0x3fa14ecd	1.2602173
21	0x3dbaecc1	0.091271885
22	0xbccf94ef	-0.025339572
23	0x3fb7064f	1.42988
24	0x3e14bb79	0.1452464
25	0x3ced5717	0.028972192
26	0x3e7c277b	0.24624436
27	0x3ba570b8	0.0050488375
28	0x3cc87af7	0.024472697
29	0xbf22244f	-0.6333665
30	0xbd1c19ba	-0.038110472
31	0xbbc7fce9	-0.0061031473

Conv2.conv.1.running_mean f4 [32]
0	0x3fb6a23c	1.426826
1	0x3efbf67f	0.492115
2	0x3bf6868b	0.007523363
3	0x3df6cd9a	0.12050934
4	0xbf9dcd4d	-1.2328278
5	0xbb796d30	-0.0038059466
6	0x3facdb22	1.3504374
7	0x3f870fe3	1.0551723
8	0xbf46e69c	-0.7769563
9	0xbcf7188a	-0.030163068
10	0xbf60e6b4	-0.87852025
11	0x3d0801e3	0.033204924
12	0x3fe3e8ba	1.7805398
13	0xbd1ac9d7	-0.037790146
14	0x3dcda7f1	0.10041798
15	0xbf0bcef2	-0.5461265
16	0x3c90b863	0.017666047
17	0x3e30510a	0.17218414
18	0x3f7ee1ff	0.9956359
19	0x3c5b1e6b	0.013373951
20	0x3c5fb4cf	0.013653948
21	0xba5210a0	-0.00080133416
22	0x3fb33820	1.4001503
23	0xbbf8388e	-0.007575101
24	0xbf2d86a5	-0.67783576
25	0x3fc2ac11	1.520876
26	0xbce6deb8	-0.028182372
27	0x3d1c97cb	0.0382307
28	0xbfaa0b72	-1.3284743
29	0xbda1694d	-0.07881413
30	0x40012c02	2.018311
31	0xbf3176d1	-0.69321924

Conv2.conv.1.running_var f4 [32]
0	0x400b4dee	2.1766315
1	0x3e7ed4ad	0.24885817
2	0x3cdff7b3	0.027339792
3	0x3e41cf79	0.18926801
4	0x3f54983d	0.830448
5	0x3ced3f21	0.028960766
6	0x4033c6ce	2.809009
7	0x3fbbdca8	1.4676714
8	0x3fa9922c	1.3247733
9	0x3d5ecad1	0.05439264
10	0x3ef6ff60	0.4824171
11	0x3d6e537a	0.05818508
12	0x3f92a740	1.1457291
13	0x3de42130	0.111391425
14	0x3f6b54bf	0.9192619
15	0x3e8e8c94	0.27841628
16	0x3f9876d8	1.1911268
17	0x3e50a87a	0.20376769
18	0x3f630de4	0.8869307
19	0x3c0f989c	0.008764412
20	0x3d046eaa	0.0323321
21	0x3b6def24	0.003630587
22	0x3f28245a	0.6568047
23	0x3bb691a5	0.0055715614
24	0x3fcc2d81	1.5951387
25	0x400483ef	2.0705526
26	0x3d92c037	0.07165568
27	0x3d31d55d	0.04341637
28	0x3f11ebd4	0.5700047
29	0x3ddb9f44	0.10723737
30	0x3fce4b88	1.61168
31	0x3f394b5b	0.7238061

Conv3.conv.0.weight f4 [32, 32, 3]
0	0x3d8be10f	0.06830036
1	0xbd660641	-0.056158308
2	0xbccdf8d6	-0.025143068
3	0xbe317415	-0.17329438
4	0x3de43807	0.11143499
5	0x3df9cc5d	0.12197182
6	0x3d17177f	0.036887642
7	0x3e888746	0.26665705
8	0x3e2a472d	0.16628714
9	0xbc0c3e72	-0.00855981
10	0xbd96cbcb	-0.07363089
11	0xbd07bbd6	-0.03313812
12	0xbdb3ccef	-0.08779322
13	0x3de31d66	0.11089592
14	0xbdfaffb2	-0.12255801
15	0xbd5c5406	-0.05379107
16	0x3d2e8a37	0.04261228
17	0xbc6123e4	-0.013741467
18	0xbc7a6624	-0.015283141
19	0x3dcfa8ac	0.101395935
20	0x3c675851	0.014120177
21	0x3e0d340f	0.1378939
22	0x3e078aff	0.13236617
23	0x3d643f3e	0.055724375
24	0x3dafecc2	0.0859008
25	0xbbea47d3	-0.0071496754
26	0x3c243ebf	0.010024725
27	0xbc52842f	-0.012848898
28	0xbcc2c099	-0.023773478
29	0xbc55d878	-0.013052098
30	0xbdb7e6cf	-0.0897957
31	0x3d185828	0.037193447
32	0x3d974896	0.073868915
33	0xbd1f2f20	-0.0388633
34	0xbd5782e3	-0.052615058
35	0x3d39fd54	0.04540761
36	0xbe57913e	-0.21051499
37	0xbd936cf6	-0.07198517
38	0x3cdfb853	0.027309572
39	0x3e18102e	0.14849922
40	0x3d916a1d	0.071003176
41	0x3da9aaec	0.08284554
42	0x3df1bf4e	0.118040666
43	0x3d81eaf2	0.063436404
44	0xbc0316be	-0.008001028
45	0xbe05cfe6	-0.13067588
46	0x3c9a4df3	0.018835997
47	0xbd8b4531	-0.068003066
48	0x3c9c798c	0.019100927
49	0x3bed44bf	0.007240861
50	0xbdeb6d01	-0.114954
51	0xbe8d9376	-0.27651566
52	0x3d85a5ec	0.06525788
53	0xbcc1b4a8	-0.023645714
54	0x3de7f6c3	0.11326363
55	0xbd095e25	-0.03353705
56	0xbdc346f2	-0.09535016
57	0xbe31cc59	-0.17363109
58	0x3e154058	0.14575326
59	0x3e0b10f7	0.1358069
60	0xbd518790	-0.051154673
61	0xbd5d76ae	-0.05406826
62	0xbd4a9989	-0.04946283
63	0xbe074bdf	-0.13212536
64	0x3d8bccf7	0.06826203
65	0x3c579747	0.013158626
66	0x3d9cac1a	0.07650013
67	0x3c64c2a4	0.013962422
68	0xbd386308	-0.04501632
69	0xbe359f9e	-0.1773667
70	0x3debb279	0.1150865
71	0x3e19e162	0.15027383
72	0xbe07ca31	-0.13260724
73	0x3c9529cb	0.018208405
74	0x3e4d36d5	0.20040448
75	0xbd4f7fd6	-0.050659023
76	0x3d25b181	0.040452484
77	0xbbbe7346	-0.0058120815
78	0xbe17cfe6	-0.148254
79	0xbd352f83	-0.044234764
80	0xbbe5c405	-0.0070118927
81	0xbe33eec5	-0.17571552
82	0xbdae8cf2	-0.08522977
83	0x3cd283d9	0.025697635
84	0xbc3ec9e5	-0.011644815
85	0x3cfcadea	0.030844647
86	0xbd521ab5	-0.051295
87	0x3d80e4ed	0.06293664
88	0x3d0baa1b	0.034097772
89	0x3c82eba3	0.015981501
90	0xbe4b9156	-0.1987966
91	0xbda04db6	-0.07827322
92	0xbd1565ca	-0.036474027
93	0x3cd61293	0.026131904
94	0xbc0a67e7	-0.008447624
95	0xbd864be5	-0.065574445
96	0x3c2c0078	0.010498159
97	0xbcdc8c73	-0.02692244
98	0x3b5295ce	0.0032132748
99	0x3bd6947b	0.006548462
100	0x3c0b5bab	0.008505742
101	0xbd81f4e2	-0.06345536
102	0x3d194e63	0.03742827
103	0x3d1844e0	0.03717506
104	0x3e49f11f	0.19720887
105	0xbe6abec4	-0.22924334
106	0xbe27a7fb	-0.16372673
107	0xbef4778d	-0.4774746
108	0xbc63e90f	-0.013910546
109	0x3b947946	0.0045310585
110	0x3e591781	0.21200372
111	0x3dbe3b91	0.09288705
112	0x3d517e67	0.051145937
113	0x3da2c5f6	0.07947914
114	0xbc3e404f	-0.011612012
115	0x3bd11342	0.0063804695
116	0xba10c9de	-0.00055232446
117	0x3d8c14a7	0.068398766
118	0x3d30d537	0.043172088
119	0xbdb957fc	-0.09049985
120	0x3bb22d3a	0.0054375203
121	0x3b8e7c45	0.00434831
122	0x3c6815bb	0.014165337
123	0x3b499275	0.0030757461
124	0xbce11af6	-0.027478676
125	0xbed16c16	-0.40902776
126	0x3c6a2540	0.014291108
127	0x3d8c9858	0.06864995
128	0xbdb8cfa0	-0.09023976
129	0xbc6a832e	-0.014313502
130	0x3e3a07e8	0.18167078
131	0xbdc28f51	-0.09499992
132	0xbcc4c52e	-0.024019804
133	0xbcc4f674	-0.0240433
134	0xbd0320e3	-0.032013785
135	0xbc0aca81	-0.008471132
136	0xbdd22c8b	-0.10262402
137	0xbd8b9815	-0.06816117
138	0x3c620ab6	0.013796499
139	0x3c98a7f1	0.018634768
140	0x3d09a156	0.033601128
141	0xbbff1699	-0.0077846763
142	0xbc402452	-0.011727409
143	0x3c4907e6	0.01226995
144	0xbd2b366b	-0.041799944
145	0x3d2b53e2	0.041828044
146	0x3ce601af	0.028076975
147	0xbcab0515	-0.020876447
148	0x3d52e066	0.051483534
149	0x3c889d35	0.016676525
150	0x3c7e649c	0.015526917
151	0x3dd2a621	0.10285593
152	0x3d5f6605	0.054540653
153	0x3d9cda99	0.07658882
154	0x3d6c2feb	0.057662886
155	0x3e611798	0.21981657
156	0xbd59bc62	-0.05315817
157	0x3ec1b866	0.37835997
158	0x3eb016b2	0.34392315
159	0x3cbfa418	0.023393676
160	0x3da295b2	0.07938708
161	0x3e3fd8e0	0.18735075
162	0x3c8f7a70	0.017514437
163	0xbbf69125	-0.007524627
164	0x3c8b2a9f	0.016988097
165	0x3d15d9cd	0.036584664
166	0x3d5d1c83	0.05398227
167	0x3e05c97f	0.13065146
168	0x3d5837ef	0.052787717
169	0xbd9cef3e	-0.07662819
170	0x3e5e59c5	0.21713932
171	0xbc8d168b	-0.017222663
172	0xbc334d4a	-0.01094372
173	0xb90a953b	-0.00013216298
174	0xbbcf3469	-0.0063233864
175	0xbd57b5a2	-0.052663453
176	0xbd3ba6ea	-0.04581348
177	0xbc864303	-0.016389376
178	0xbd17e115	-0.03707989
179	0xbd85cc8c	-0.06533155
180	0x3c363ec8	0.011123367
181	0x3c90bf55	0.01766936
182	0xbbb99ab1	-0.0056641926
183	0xbcdd18e6	-0.026989412
184	0x3ccb18be	0.024792071
185	0xbe9b75d1	-0.30363324
186	0xbc45321f	-0.012035876
187	0x3bce8779	0.0063027707
188	0xbc26f1b4	-0.010189462
189	0xbd07e80c	-0.03318028
190	0xbce53618	-0.027979895
191	0x3d368e2a	0.044569172
192	0x3dafac63	0.08577802
193	0xbdbebd15	-0.09313408
194	0xbbc8c7fb	-0.006127355
195	0x3c026821	0.007959397
196	0xbd692a9c	-0.0569254
197	0x3d3c0b16	0.04590901
198	0xbdffa559	-0.124827094
199	0xbd0b58c3	-0.034020197
200	0x3e1a7177	0.15082346
201	0xbcc7c0d5	-0.024383942
202	0x3e2cbe72	0.16869524
203	0x3e2031c8	0.1564399
204	0x3ca301f9	0.019898402
205	0x3db5f9ad	0.088855125
206	0xbda8b7f1	-0.08238209
207	0xbe2bcb6b	-0.16776817
208	0xbda4aff4	-0.08041373
209	0x3b609bd8	0.0034272578
210	0xbc7517a3	-0.014959249
211	0x3d196dd0	0.03745824
212	0xbe293700	-0.16524887
213	0xbd0fca07	-0.035104778
214	0xbd45ef6e	-0.04832404
215	0xbe434c6f	-0.19072126
216	0xbd60e9ca	-0.05491046
217	0xbd38fb4a	-0.045161523
218	0x3d2e1749	0.042502675
219	0xbd01645d	-0.031589855
220	0xbd0b01f0	-0.033937395
221	0x3c265c21	0.010153801
222	0x3e4240b9	0.18970002
223	0x3d4a93dc	0.049457416
224	0x3e48a1e8	0.19593012
225	0x3d253383	0.04033233
226	0xbdc1c09f	-0.09460568
227	0xbe4164d2	-0.18886116
228	0x3d5d4c8c	0.05402808
229	0xbe037fb6	-0.12841687
230	0xbd85f6ee	-0.06541239
231	0xbdf168a7	-0.11787539
232	0xbd5cc58c	-0.053899333
233	0x3e163171	0.14667298
234	0x3b66e75a	0.003523311
235	0x3d931a3b	0.071827374
236	0xbc869c32	-0.016431902
237	0xbbfb3527	-0.0076662484
238	0xbd82999e	-0.063769564
239	0x3dcb3f98	0.09924239
240	0x3e09c6a7	0.13454686
241	0x3d9ad197	0.07559507
242	0xbda61306	-0.08109097
243	0x3e03821f	0.12842606
244	0x3e062d86	0.13103303
245	0x3e80abee	0.25131172
246	0x3d84cf8f	0.06484901
247	0x3ddd955e	0.10819505
248	0x3d5700c4	0.052490965
249	0xbe6802ff	-0.22657393
250	0xbde969b7	-0.11397117
251	0xbd61848c	-0.055058047
252	0x3d8d8681	0.0691042
253	0x3dc8f5a9	0.09812481
254	0x3d5bb113	0.053635668
255	0xbd9f5da5	-0.07781533

Conv3.conv.0.bias f4 [32]
0	0xbcae9bd9	-0.021314548
1	0x3c338ad5	0.010958393
2	0xbda65d02	-0.081232086
3	0xbc9ca2c9	-0.01912059
4	0xbd9b9c2e	-0.07598148
5	0x3cfd174e	0.030894902
6	0x3d73f9cb	0.059564393
7	0x3da55a5b	0.080738746
8	0xbdb82c0d	-0.08992777
9	0x3d919743	0.07108929
10	0x3d9812b6	0.07425444
11	0x3c76bef7	0.015060178
12	0xbdaf83f5	-0.08570091
13	0xbc058a80	-0.008150697
14	0xbd5c3d5a	-0.053769447
15	0xbd7936b1	-0.060843173
16	0xbd8e6bd4	-0.0695416
17	0xbd87bd1b	-0.06627866
18	0x3c2d46f8	0.010576002
19	0x3c8b4443	0.017000323
20	0x3d08ef4f	0.033431347
21	0xbd3e4cad	-0.046459842
22	0x3d7eacd0	0.062176526
23	0x3d8bee8d	0.06832609
24	0x3b6c8f80	0.0036096275
25	0x3dc741db	0.09729358
26	0x3d105256	0.03523477
27	0x3cf188fd	0.029484266
28	0x3da57dfe	0.08080672
29	0xbdc6a728	-0.09699851
30	0x3d6905e7	0.056890395
31	0x3b3a83bd	0.002845987

Conv3.conv.1.weight f4 [32]
0	0x3f25c9eb	0.6476123
1	0x3f3bfa35	0.7342866
2	0x3ee0ee50	0.43931818
3	0x3f815521	1.0104104
4	0x3f69d3d1	0.9133883
5	0x3f8a09b0	1.0784206
6	0x3f34b9e3	0.7059614
7	0x3f0dd93a	0.55409586
8	0x3f20c50f	0.6280069
9	0x3f9e51a1	1.2368661
10	0x3f36f9aa	0.7147471
11	0x400e3a5b	2.2223117
12	0x3f3d6c1d	0.7399309
13	0x3f0e7448	0.5564618
14	0x3f4c3aa3	0.7977697
15	0x3f42fa21	0.76162916
16	0x3fc21ac9	1.5164424
17	0x3f1141f6	0.56741273
18	0x3f644d15	0.8918012
19	0x3f8b9570	1.090498
20	0x3f552526	0.8325981
21	0x3f307099	0.6892181
22	0x3f9736a6	1.1813552
23	0x3f1955f9	0.5989681
24	0x3f4de083	0.804207
25	0x3f352cdf	0.7077159
26	0x3f8135fc	1.00946
27	0x3f7b82a1	0.982462
28	0x3f1a1908	0.60194445
29	0x3f2bf52a	0.67170966
30	0x3fc82889	1.563737
31	0x3f685dc8	0.907681

Conv3.conv.1.bias f4 [32]
0	0xbf2642f6	-0.64945924
1	0xbf4d286b	-0.801398
2	0x3c7902a1	0.015198381
3	0xbf63d4dd	-0.8899668
4	0xbec15dd9	-0.37766913
5	0x3f25ab8b	0.6471488
6	0xbeee4cd0	-0.46542978
7	0xbf1ea2ba	-0.6196705
8	0x3e9e1ac4	0.30879796
9	0xbf12ed3f	-0.5739326
10	0xbf5af1b9	-0.8552509
11	0x3f744f0a	0.95433104
12	0xbf00e9a0	-0.50356483
13	0xbed42c13	-0.41439876
14	0xbee287f0	-0.44244337
15	0xbf59028f	-0.8476953
16	0xbf86bba4	-1.0526013
17	0xbe140c25	-0.14457758
18	0xbf40e32f	-0.75346655
19	0xbf2c4a76	-0.6730112
20	0xbeae1b27	-0.3400509
21	0xbf118b33	-0.56853026
22	0xbf4bf212	-0.79666245
23	0xbec8d461	-0.39224532
24	0xbee48db5	-0.44639364
25	0x3f2d10d3	0.67603797
26	0xbf346f67	-0.70482486
27	0xbd59c5f3	-0.053167295
28	0xbd37cb10	-0.04487139
29	0xbf277f91	-0.65429026
30	0xbf993999	-1.1970702
31	0xbf828596	-1.0197017

Conv3.conv.1.running_mean f4 [32]
0	0x3e5eee88	0.2177068
1	0x3fb15c1b	1.3856233
2	0xbe8ff999	-0.28120115
3	0xbc51f6ec	-0.012815218
4	0x3e7aa0f1	0.24475457
5	0xbf220ca3	-0.6330053
6	0xbf098431	-0.53717333
7	0x3e857f1e	0.26073545
8	0xbf01b118	-0.5066085
9	0x3db23a38	0.087025106
10	0x3f88a9b4	1.0676789
11	0xbeb8b73c	-0.36077297
12	0x3eb804fb	0.359413
13	0x3deb41c2	0.11487152
14	0x3e300e25	0.17192896
15	0xbd403709	-0.046927486
16	0x3d20479f	0.039130803
17	0xbf0aebb8	-0.5426593
18	0xbcc85bd6	-0.024457853
19	0x3e697438	0.2279824
20	0xbe46a141	-0.19397451
21	0x3ddb3ceb	0.107049786
22	0x3e738020	0.23779345
23	0x3f7c5826	0.98572004
24	0xbde75f0c	-0.11297426
25	0x3ef02bdc	0.46908462
26	0x3ed27079	0.41101435
27	0x3e0e8e1b	0.13921396
28	0x3f033545	0.5125316
29	0xbceccf17	-0.028907342
30	0x3e0dc555	0.13844807
31	0xbc3eb282	-0.011639239

Conv3.conv.1.running_var f4 [32]
0	0x3e8b6998	0.27229
1	0x3dee979e	0.116500124
2	0x3e7b016c	0.24512261
3	0x3edbb0a6	0.4290821
4	0x3ed6ec41	0.41977122
5	0x3e96f7f9	0.29486063
6	0x3e6b7a20	0.22995806
7	0x3e457c26	0.1928564
8	0x3e508382	0.20362666
9	0x3f09567c	0.5364759
10	0x3e24e2ea	0.16102186
11	0x3e03d2dc	0.12873405
12	0x3e148bda	0.14506474
13	0x3e0e7eac	0.13915509
14	0x3e857d47	0.26072142
15	0x3ee67d43	0.45017442
16	0x3ef35bdd	0.47531024
17	0x3dd47e6f	0.10375678
18	0x3f19fb84	0.6014941
19	0x3eb573dc	0.35439956
20	0x3e6632b8	0.22480285
21	0x3eb72799	0.35772398
22	0x3f366f3c	0.7126348
23	0x3e32183b	0.17392056
24	0x3e707243	0.23481087
25	0x3e36caae	0.17850754
26	0x3eb18c03	0.34677133
27	0x3eb99529	0.36246613
28	0x3e410c8c	0.18852443
29	0x3ec89e94	0.39183486
30	0x3ee04dc5	0.43809333
31	0x3e538279	0.2065524

Conv4.conv.0.weight f4 [16, 32, 3]
0	0x3e2e77b2	0.17037848
1	0x3dd1db4a	0.10246904
2	0xbd27710d	-0.040879298
3	0xbe88572a	-0.26629
4	0x3c9dde34	0.019270994
5	0xbe4c3bfa	-0.19944754
6	0xbd6a20dd	-0.057160247
7	0xbd256e52	-0.040388413
8	0xbcb4cd9c	-0.022070698
9	0xbd9873ae	-0.07443939
10	0xbd83a14d	-0.0642725
11	0x3d3cac73	0.046062898
12	0xbcb87fdd	-0.022521907
13	0xbb752258	-0.0037404504
14	0x3d4f5807	0.05062106
15	0xbcdf51c1	-0.027260663
16	0xbd8194f9	-0.063272424
17	0xbcfff9ce	-0.031247046
18	0x3d42c6b4	0.04755278
19	0xbc0b22b0	-0.008492157
20	0x3da40f33	0.080107115
21	0x3dfa2442	0.12213947
22	0xbdf966c1	-0.12177802
23	0x3dc02341	0.09381724
24	0x3dd73f07	0.105100684
25	0x3d735b51	0.059413258
26	0x3da92b42	0.08260204
27	0x3da1d1c7	0.0790134
28	0x3da2f49c	0.07956812
29	0xbda28cb9	-0.07936997
30	0xbe9f1c9a	-0.3107651
31	0x3e1605ac	0.14650601
32	0xbe4e3179	-0.2013606
33	0xbc1b3217	-0.009472392
34	0x3c42fe01	0.01190138
35	0xbe998de5	-0.2999107
36	0xbe5ad053	-0.21368532
37	0x3d19730f	0.037463244
38	0xbe60a488	-0.21937764
39	0x3d439f23	0.047759186
40	0x3ceac092	0.028656278
41	0xbcd34b1c	-0.02579265
42	0x3b905bfa	0.0044054957
43	0xbdcf7601	-0.10129929
44	0xbc927806	-0.017879497
45	0xbdf4585a	-0.11930914
46	0xbdf67e3a	-0.120357946
47	0x3cfc5b4d	0.030805254
48	0xbd6826e9	-0.056677733
49	0xbc28c21c	-0.0103001855
50	0x3d339962	0.04384745
51	0x3d721c84	0.059109226
52	0x3bd7f2d3	0.006590226
53	0xbd809efe	-0.06280325
54	0xbe009390	-0.1255629
55	0xbd859350	-0.06522238
56	0x3d5f7854	0.054558113
57	0x3cab4517	0.020906968
58	0x3e0ac0fc	0.1355018
59	0x3c686582	0.014184358
60	0xbdc64845	-0.09681753
61	0xbcaaae32	-0.020835016
62	0xbc99fbd7	-0.018796844
63	0x3d296818	0.041359037
64	0xbd048849	-0.032356534
65	0xbd11cd39	-0.035596106
66	0x3cccb686	0.024989378
67	0x3da5650b	0.08075913
68	0xbdba4a34	-0.090961844
69	0xbe9582aa	-0.2920125
70	0x3d8700dd	0.065919615
71	0xbe4ced8f	-0.20012496
72	0x3e292932	0.16519621
73	0x3cd0141e	0.025400218
74	0xbd51a9dc	-0.05118738
75	0xbdb73eac	-0.089475006
76	0x3d9befda	0.076141074
77	0x3d1add1f	0.037808534
78	0xbda1634f	-0.0788027
79	0xbe0debe4	-0.13859516
80	0xbcfb59a8	-0.0306824
81	0x3d9f427c	0.07776353
82	0x3c6782a0	0.0141302645
83	0x3d4683fd	0.048465718
84	0xbdd35c06	-0.103202865
85	0xbdcb18c8	-0.09916836
86	0xbb57935a	-0.0032894225
87	0x3c93dcbb	0.018049588
88	0xbda4e2ff	-0.080511086
89	0xbd1ae894	-0.03781946
90	0x3d9af83b	0.075668775
91	0x3c7271f0	0.014797673
92	0x3d2ef82f	0.042717155
93	0xbd543441	-0.051807646
94	0x3b50f7d7	0.0031886005
95	0xbc281d08	-0.010260828
96	0x3e29d66e	0.16585705
97	0x3df97f83	0.12182524
98	0xbe441ca7	-0.19151555
99	0xbdf3d69d	-0.119061686
100	0x3d584bdb	0.052806716
101	0xbdd73469	-0.10508043
102	0xbe1a4c1d	-0.15068097
103	0x3b1675b9	0.0022958352
104	0xbd8d4169	-0.068972416
105	0x3e52cefe	0.20586774
106	0x3dab2408	0.08356482
107	0x3d7c5445	0.061603803
108	0x3d2b3c4b	0.041805547
109	0xbdcec21c	-0.10095617
110	0xbc90037e	-0.01757979
111	0x3df37999	0.11888427
112	0x3dfcef80	0.123503685
113	0xbccbcb6d	-0.024877274
114	0x3e288125	0.16455515
115	0x3ccb6117	0.02482657
116	0x3d02931b	0.031878572
117	0xbe170892	-0.14749363
118	0xbe295ac4	-0.1653853
119	0xbd1df20f	-0.038560923
120	0xbd574a80	-0.052561283
121	0x3d4c50ba	0.049881674
122	0x3da6db58	0.08147305
123	0xbda554ef	-0.080728404
124	0x3c30b9ff	0.010786532
125	0xbd02c9ad	-0.031930614
126	0x3b5c17e3	0.0033583574
127	0x3c6d32c0	0.014477432
128	0xbd9a4e20	-0.075344324
129	0x3e0ab07c	0.13543886
130	0xbdfdb1ff	-0.12387466
131	0x3ea92492	0.33035713
132	0xbe01d294	-0.12677985
133	0x3d864c70	0.06557548
134	0xbd9b8b3c	-0.07594916
135	0x3d991826	0.07475309
136	0xbd8951aa	-0.06705029
137	0x3ddb8c7e	0.10720156
138	0x3e09e12f	0.13464807
139	0xbd90bebb	-0.07067629
140	0xbd263f93	-0.040587973
141	0x3df11a49	0.117725916
142	0x3d565c49	0.052334104
143	0xbdc192e1	-0.09451843
144	0xbdb52af5	-0.08846084
145	0x3d115696	0.035482965
146	0xbd018b06	-0.031626724
147	0x3dd58962	0.10426594
148	0xbdb616c5	-0.08891062
149	0xbdc313b6	-0.09525244
150	0x3d30f473	0.043201875
151	0xbd7665cf	-0.060155686
152	0x3de68e82	0.1125765
153	0x3b834974	0.004006559
154	0x3e47a803	0.19497685
155	0x3ce7c9e7	0.028294517
156	0x3c72e6fc	0.014825579
157	0xbd3a23ec	-0.045444414
158	0xbd9c3feb	-0.07629379
159	0x3e3079fb	0.17234032
160	0x3dd28f26	0.1028121
161	0xbdbabf9a	-0.09118576
162	0x3d182f17	0.037154283
163	0x3dbc1b47	0.0918489
164	0xbd183afd	-0.03716563
165	0xbe1ca715	-0.15298112
166	0xbd284d8b	-0.041089576
167	0xbcdf9490	-0.02729252
168	0xbd197900	-0.03746891
169	0x3d7a24f7	0.06107041
170	0xbd2aae31	-0.041670028
171	0x3d207119	0.03917036
172	0xbe057359	-0.13032283
173	0xbca984a7	-0.020693136
174	0x3d4d893e	0.050179712
175	0x3c41859b	0.011811639
176	0x3d5ce0f1	0.05392546
177	0xbba6f8a7	-0.0050955596
178	0xbe586cea	-0.21135297
179	0x3dd19c4f	0.102348916
180	0x39f35726	0.00046413502
181	0x3da010e1	0.078157194
182	0xbce697aa	-0.028148491
183	0xba883f29	-0.00103948
184	0x3df0eb65	0.11763648
185	0x3d8dcb67	0.069235615
186	0x3da47253	0.08029618
187	0x3d3699b9	0.044580195
188	0xbb9c588f	-0.004771299
189	0xbdbb855a	-0.09156294
190	0x3cdd3b14	0.02700571
191	0xbcb98279	-0.022645222
192	0xbe41ea16	-0.18936953
193	0x3ce8e124	0.028427668
194	0x3c8ba87c	0.017048113
195	0x3d85103d	0.06497238
196	0xbc81a6bb	-0.015826574
197	0x3c67481c	0.014116313
198	0xbd97fedd	-0.07421658
199	0x3da8dfb9	0.08245797
200	0x3d75cb67	0.060008433
201	0x3de720e6	0.11285572
202	0xbd0d2504	-0.03445913
203	0xbcc8d14d	-0.024513865
204	0x3cb001d5	0.021485249
205	0xbde82750	-0.11335623
206	0xbc846b74	-0.016164519
207	0x3e7457bd	0.23861594
208	0xbd34de9f	-0.04415762
209	0xbc2093e4	-0.009800885
210	0x3d863d26	0.06554632
211	0xbca3b8e9	-0.019985633
212	0x3d611552	0.054951973
213	0x3bd465d8	0.0064818673
214	0xbb27c7cd	-0.0025601268
215	0x3d8e44af	0.06946694
216	0xbd7a7a0c	-0.06115155
217	0xbd174dfd	-0.03693961
218	0x3d7cadeb	0.0616893
219	0xbe90f1ae	-0.28309387
220	0x3d4e08db	0.050301414
221	0x3af8883a	0.0018961497
222	0x3dc326b1	0.09528864
223	0x3c848898	0.016178414
224	0x3c9da271	0.019242497
225	0x3da17133	0.07882919
226	0xbd338a5c	-0.04383312
227	0xbd99994b	-0.074999414
228	0x3d2da457	0.042393055
229	0xbcb1392f	-0.021633713
230	0xbcc18015	-0.023620645
231	0xbe8d3559	-0.27579764
232	0xbcb815ed	-0.022471393
233	0x3d5746f8	0.052557915
234	0x3e2fc4ad	0.1716487
235	0xbce8ca85	-0.028416881
236	0xbd68b156	-0.056809746
237	0x3e77b18c	0.24188823
238	0xbdb4a416	-0.088203594
239	0xbd8eea91	-0.06978334
240	0xbe321b0b	-0.17393129
241	0xbbdf6422	-0.0068173567
242	0x3cc6a710	0.024249583
243	0xbe3c29b3	-0.18375282
244	0xbcb4b1c5	-0.022057423
245	0xbc8da316	-0.01728968
246	0x3e9e0d6e	0.3086962
247	0xbdd252fd	-0.10269735
248	0xbc63dd30	-0.013907716
249	0xbe6eec1b	-0.23332255
250	0xbc4588f2	-0.012056576
251	0x3d199830	0.037498653
252	0xbc3d8c03	-0.011569026
253	0xbd4f1794	-0.050559595
254	0x3d00e7d0	0.031471074
255	0x3cc6e234	0.024277784

Conv4.conv.0.bias f4 [16]
0	0xbdbc34d0	-0.09189761
1	0xbc745f60	-0.014915317
2	0x3d68564d	0.056722928
3	0x3dc67257	0.09689777
4	0xbd2f0a2c	-0.04273431
5	0xbcb59af3	-0.022168612
6	0xbc0083e2	-0.007843943
7	0xbd0059ed	-0.03133576
8	0xbd939142	-0.0720544
9	0x3d1db75b	0.03850494
10	0xbd44cae7	-0.048045065
11	0xbd378515	-0.04480465
12	0x3d4b2211	0.049593035
13	0xbc7c3484	-0.01539338
14	0x3cdc9abb	0.02692925
15	0x3c60fe1c	0.013732459

Conv4.conv.1.weight f4 [16]
0	0x3ec38138	0.38184524
1	0x3f5ad6cf	0.8548402
2	0x3eb3fd94	0.35154402
3	0x400bec07	2.186281
4	0x3f6cdada	0.9252144
5	0x3f17441a	0.5908829
6	0x3e879b8c	0.2648586
7	0x3f71b7cc	0.94421077
8	0x3f65c07c	0.8974683
9	0x3ef3e602	0.4763642
10	0x3f8df42b	1.1090139
11	0x3ef8489e	0.48492903
12	0x3f19e488	0.60114336
13	0x3ef7585a	0.48309594
14	0x3f3c868a	0.7364279
15	0x3ef5344d	0.47891465

Conv4.conv.1.bias f4 [16]
0	0xbe8dbe55	-0.27684274
1	0xbf13ec6c	-0.57782626
2	0xbe03a96a	-0.12857595
3	0xc00acdb3	-2.168805
4	0x3d28f59e	0.041249864
5	0x3e8934c3	0.26798066
6	0xbd173602	-0.03691674
7	0xbcd51545	-0.026011119
8	0x3ea703e0	0.32620144
9	0xbe9784f2	-0.29593617
10	0x3f281237	0.65652794
11	0x3c93dc2d	0.018049324
12	0xbe642b2e	-0.22282097
13	0x3d453633	0.04814739
14	0xbe97d26c	-0.29652727
15	0x3da20364	0.07910803

Conv4.conv.1.running_mean f4 [16]
0	0x3e98fee3	0.29881963
1	0x3dbcaf84	0.092131644
2	0x3c211db6	0.009833744
3	0x3e8eeb77	0.2791402
4	0x3cb5c65f	0.022189317
5	0xbe633f67	-0.22192155
6	0xbe773a95	-0.24143441
7	0x3e4e3660	0.2013793
8	0xbe853b55	-0.2602183
9	0x3eb13a0e	0.34614605
10	0xbe3c1fdf	-0.18371533
11	0x3e764a43	0.24051766
12	0x3ed3b30e	0.41347545
13	0xbe21d28a	-0.1580297
14	0xbebc2359	-0.36745718
15	0xbe98b753	-0.29827365

Conv4.conv.1.running_var f4 [16]
0	0x3dc35316	0.09537332
1	0x3eb8ec5d	0.3611783
2	0x3d95d9ef	0.07316958
3	0x3e48a4cc	0.19594115
4	0x3f478f7a	0.779533
5	0x3e93794a	0.28803474
6	0x3d50fd92	0.051023073
7	0x3f579959	0.84218365
8	0x3efd90ff	0.49524686
9	0x3e8be77a	0.2732504
10	0x3f16f7d9	0.58971936
11	0x3e81e454	0.25369513
12	0x3eef02fc	0.46681964
13	0x3e10ec16	0.1415256
14	0x3e7cda1f	0.24692582
15	0x3d84d251	0.06485427

Conv5.conv.0.weight f4 [8, 16, 3]
0	0x3ddcdc3c	0.10784194
1	0x3df91a35	0.12163202
2	0xbe6169e8	-0.22013056
3	0x3c6c164b	0.014409612
4	0x3d4abebf	0.049498316
5	0xbdbdebf3	-0.09273519
6	0x3e178ea9	0.14800514
7	0xbd633420	-0.055469632
8	0x3d56018c	0.05224757
9	0xbccb9dc8	-0.02485551
10	0xbc793015	-0.015209218
11	0x3c984abd	0.018590325
12	0x3e7e98a6	0.24862918
13	0x3e0406ad	0.12893172
14	0x3cd95262	0.026528541
15	0x3e0004a2	0.12501767
16	0xbdbeda49	-0.09318978
17	0x3d9b597d	0.07585428
18	0x3e2f8067	0.17138825
19	0xbdb61d65	-0.08892325
20	0x3e4e242c	0.20130986
21	0xbe50bbf0	-0.20384192
22	0xbe05875a	-0.13039914
23	0xbc2895c9	-0.010289618
24	0x3d452ce3	0.04813851
25	0x3d947a2a	0.072498634
26	0x3e354df0	0.17705512
27	0x3d09ed00	0.033673286
28	0x3cd490b9	0.025947915
29	0x3e01cb1f	0.12675141
30	0xbd2d70bd	-0.042343844
31	0xbcb89423	-0.022531575
32	0x3d54ae7e	0.05192422
33	0xbd8d4661	-0.06898189
34	0x3dc67601	0.09690476
35	0x3ca7f082	0.020500425
36	0x3e1b8459	0.15187205
37	0x3c88e9b4	0.016713
38	0x3b8d222b	0.0043070517
39	0xbea62161	-0.3244734
40	0xbe1e6ab8	-0.15470397
41	0xbd826189	-0.063662596
42	0x3e13be0e	0.14427969
43	0xbdfd0b43	-0.123556636
44	0xbd7d1882	-0.06179095
45	0xbdcb6f3b	-0.09933325
46	0xbc0c6471	-0.008568869
47	0x3de71c7f	0.11284732
48	0xbc936d51	-0.017996462
49	0xbde7320b	-0.11288842
50	0x3e3bf720	0.1835599
51	0x3ca6b925	0.020351956
52	0x3c16afb8	0.009197168
53	0xbe161127	-0.1465498
54	0x3d5f127e	0.054460995
55	0xbd7f7eb6	-0.0623767
56	0x3d457570	0.0482077
57	0x3efe78ca	0.4970153
58	0xbeae5c94	-0.34055007
59	0x3b23d1c8	0.0024996866
60	0xbd238c70	-0.039928854
61	0xbbb3b014	-0.0054836366
62	0xbc0a5872	-0.008443939
63	0x3d5f46c9	0.054510865
64	0xbdc49e0c	-0.096004575
65	0xbd9e7401	-0.0773697
66	0xbda4096d	-0.0800961
67	0xbd115135	-0.035477836
68	0x3ebed090	0.37268496
69	0x3d3c9e90	0.046049654
70	0xbcab85fd	-0.020937914
71	0xbb3b3d83	-0.00285706
72	0x3cf68cd5	0.03009645
73	0x3c96ec81	0.01842332
74	0xbd226c43	-0.039654028
75	0xbe52ac4d	-0.2057354
76	0x3ca7095f	0.02039021
77	0x3dbac764	0.09120062
78	0xbcb0f8a0	-0.021602929
79	0xbdeef3e1	-0.1166761
80	0x3d9ca9d2	0.07649578
81	0xbc16514f	-0.009174659
82	0x3e2aeccb	0.16691892
83	0xbdb7f88e	-0.08982955
84	0xbdb2134b	-0.08695086
85	0xbdb4ae4c	-0.08822307
86	0x3c954820	0.018222868
87	0x3c1f4d72	0.009723054
88	0xbd0eb049	-0.034836087
89	0x3e1b9ae0	0.15195799
90	0xbd1320ab	-0.035919826
91	0x3d6f9d65	0.058499712
92	0xbe1de2e9	-0.1541859
93	0x3b64a02b	0.0034885507
94	0xbd763abd	-0.06011461
95	0x3da5d33a	0.08096929
96	0x3d60a929	0.054848824
97	0x3e12a0cb	0.1431915
98	0xbdf95b1f	-0.12175583
99	0xbd1b242e	-0.0378763
100	0x3c8070ec	0.015678845
101	0x3d6551a2	0.055986054
102	0x3d84a9bd	0.064776875
103	0xbe12c2cf	-0.14332126
104	0xbd91cab9	-0.071187444
105	0xba847ec1	-0.0010108576
106	0xbc85ac88	-0.01631762
107	0x3c38a3b0	0.011269495
108	0x3d87da89	0.06633479
109	0xbe2acf4a	-0.16680637
110	0xbe26b348	-0.16279328
111	0x3e2323fa	0.15931693
112	0x3e6caee9	0.23113598
113	0x3dad9e79	0.08477492
114	0xbe52da1a	-0.20591012
115	0xbe87f404	-0.26553357
116	0x3e97994f	0.29609153
117	0x3d66983c	0.056297526
118	0x3e1930a4	0.14959961
119	0x3e7ed7a6	0.24886951
120	0xbcda97f5	-0.026683787
121	0xbd78d208	-0.060747176
122	0x3c8eff14	0.017455615
123	0xbd952d7b	-0.07284065
124	0x3dc655d8	0.09684342
125	0xbbcd8063	-0.0062714084
126	0xbdb19044	-0.086700946
127	0xbd48e64c	-0.049047753
128	0x3b36a95a	0.0027871937
129	0x3e298a09	0.16556562
130	0x3cfea385	0.031083832
131	0x3dc4185a	0.09574957
132	0x3c6ab9c7	0.014326519
133	0xbd053542	-0.032521494
134	0xbe401981	-0.18759729
135	0x3d4b30d6	0.04960712
136	0xbb74fc63	-0.003738188
137	0x3daa4f3b	0.08315893
138	0xbd76d36e	-0.06026023
139	0xbe0fd83b	-0.14047329
140	0xbd7baf98	-0.061446756
141	0x3db13210	0.08652127
142	0x3c018ecc	0.007907581
143	0x3eac1fae	0.3361792
144	0x3cebe5ad	0.028796041
145	0x3c2dd4f9	0.010609859
146	0xbb9b5cbb	-0.004741279
147	0x3abbb1c4	0.0014319946
148	0xbd2279a8	-0.0396668
149	0xbd4dd7d6	-0.050254665
150	0xbe0f1115	-0.1397136
151	0xbc3e8118	-0.011627458
152	0x3d6309cc	0.055429265
153	0x3cd14476	0.02554534
154	0xba965d8f	-0.0011471974
155	0x3d7726da	0.060339786
156	0xbe9057ff	-0.28192136
157	0xbe9bd7b6	-0.30438012
158	0xbe0a478e	-0.13503858
159	0xbdb1ad83	-0.08675673
160	0xbdeb90ae	-0.11502205
161	0xbc5638dc	-0.01307508
162	0xbe4476b2	-0.19185904
163	0xbe64b3d5	-0.22334225
164	0x3d3c3638	0.045950145
165	0x3e1e5641	0.15462591
166	0x3e3a443e	0.18190095
167	0x3d6a7a0d	0.057245303
168	0xbd1e9aa3	-0.03872169
169	0xbdb51887	-0.08842569
170	0xbd41bde0	-0.04730022
171	0xbd072d7c	-0.03300236
172	0xbd2461ed	-0.04013245
173	0x3c84efec	0.016227685
174	0x3cbd0b88	0.023076788
175	0x3c7b700e	0.01534654
176	0x3d5a22cc	0.05325584
177	0x3db8611d	0.09002898
178	0xbb331269	-0.0027324206
179	0xbe329935	-0.17441256
180	0xbe1807e6	-0.14846763
181	0xbdef57a9	-0.11686642
182	0xbde0de87	-0.10979944
183	0x3e0347b1	0.12820317
184	0x3e023b46	0.12717924
185	0x3c1fef75	0.009761681
186	0xbdeb38d7	-0.11485451
187	0xbd1d47d6	-0.038398586
188	0x3d86ca5f	0.06581568
189	0xbd93b5a6	-0.07212381
190	0x3e1ab59d	0.15108342
191	0x3e8f137e	0.2794456
192	0xbd2a018a	-0.041505374
193	0xbdd0df2e	-0.10198818
194	0x3ca416cb	0.0200304
195	0xbd6f8600	-0.0584774
196	0x3ec08c85	0.37607208
197	0x3cac6cdb	0.021048
198	0xbdcf9a6e	-0.10136877
199	0xbdf316ab	-0.11869558
200	0xbd14e07a	-0.03634689
201	0x3e20bb79	0.15696515
202	0xbe06be6b	-0.13158576
203	0xbda7fe50	-0.08202803
204	0xbc8553ba	-0.016275275
205	0xbd8e7951	-0.06956733
206	0xbd124826	-0.035713337
207	0xbda758a2	-0.08171202
208	0x3d950320	0.07275987
209	0x3c10013d	0.008789358
210	0xbd86801f	-0.06567406
211	0xbdbda7b4	-0.092605025
212	0x3e42caa7	0.19022618
213	0x3d417fbe	0.047240965
214	0x3dc3549c	0.09537622
215	0xbcfdd89e	-0.03098708
216	0x3da5d77e	0.080977425
217	0x3e1962ea	0.14979139
218	0xbd219b77	-0.039454903
219	0xbddeb947	-0.108751826
220	0x3de9d6c5	0.11417917
221	0x3e49e6ae	0.19716904
222	0xbd53ee8a	-0.05174116
223	0xbd824130	-0.0636009
224	0x3e918eba	0.28429204
225	0x3de34333	0.110968016
226	0x3e1be240	0.15223026
227	0x3ce32398	0.027726933
228	0x3d5558a0	0.052086473
229	0xbc532b3d	-0.012888727
230	0x3da719bd	0.08159206
231	0xbda1f373	-0.079077624
232	0x3dbc66f3	0.091993235
233	0x3c8c5ef5	0.017135123
234	0xbda25bd4	-0.07927671
235	0x3d1a8ac0	0.03772998
236	0xbe1048da	-0.1409029
237	0xbd92179a	-0.07133408
238	0xbd815cf4	-0.063165575
239	0x3de026b1	0.1094488
240	0x3d9b6432	0.0758747
241	0xbd0d105f	-0.03443944
242	0xbe244c95	-0.16044839
243	0xbb20d2d7	-0.0024539733
244	0x3c157bab	0.009123723
245	0xbd2a8b34	-0.04163666
246	0xbe7b2bb3	-0.24528389
247	0x3dc9ad43	0.098475
248	0xbda576ab	-0.08079275
249	0xbc73c57f	-0.01487863
250	0xbaf92a05	-0.0019009715
251	0xbb361352	-0.0027782512
252	0xbe049e80	-0.12951088
253	0xbccafc36	-0.024778467
254	0xbe070273	-0.13184528
255	0x3daad87b	0.083420716

Conv5.conv.0.bias f4 [8]
0	0xbdc12178	-0.09430212
1	0x3ddd9ea8	0.10821277
2	0x3c60278a	0.013681302
3	0xbe028d85	-0.12749298
4	0xbdcc2a93	-0.09969058
5	0x3dfbf210	0.12302029
6	0xbda5af97	-0.08090132
7	0xbdcf4219	-0.10120029

Conv5.conv.1.weight f4 [8]
0	0x3e45880d	0.1929018
1	0x4022d84e	2.5444522
2	0x3ee8bd42	0.45456892
3	0x3ec27b79	0.37984827
4	0x40009da0	2.0096207
5	0x3e3f1b29	0.18662705
6	0x3e56d7fe	0.20980832
7	0x3e72dd69	0.23717274

Conv5.conv.1.bias f4 [8]
0	0x3bc38d33	0.00596776
1	0xbea4436c	-0.3208269
2	0xbe2ab604	-0.16670996
3	0xbe81b649	-0.25334385
4	0x3ff79d7c	1.9344935
5	0xbd84d4cd	-0.06485901
6	0xbe0dbf94	-0.13842613
7	0x3d9f2005	0.07769779

Conv5.conv.1.running_mean f4 [8]
0	0xbdc43697	-0.09580725
1	0x3d632f82	0.05546523
2	0x3e222108	0.15832913
3	0xbda019c7	-0.07817417
4	0xbd7510bb	-0.05983041
5	0x3e55d8b2	0.20883444
6	0xbe291ea5	-0.16515596
7	0xbd8598ca	-0.06523283

Conv5.conv.1.running_var f4 [8]
0	0x3e74cb38	0.23905647
1	0x3e13c2af	0.14429735
2	0x3dceeb34	0.10103455
3	0x3e90b534	0.28263247
4	0x3dc4f25d	0.096165396
5	0x3d9808c1	0.07423545
6	0x3d8fb229	0.07016403
7	0x3e8818cf	0.26581427

Conv6.conv.0.weight f4 [4, 8, 3]
0	0xbd9a10c1	-0.07522727
1	0xbccaa24d	-0.024735594
2	0xbd141bc9	-0.03615931
3	0x3bc0d24c	0.0058844443
4	0xb914a7e6	-0.00014176927
5	0xbc37f0ca	-0.011226842
6	0xbe8ec6f0	-0.27886152
7	0x3d68d9f4	0.05684848
8	0xbe4c9e15	-0.19982179
9	0x3e88c585	0.26713195
10	0xbe1a824b	-0.15088765
11	0xbda4e72e	-0.080519065
12	0xbcd16002	-0.025558475
13	0x3c9d5e79	0.019210087
14	0x3b111f16	0.0022143773
15	0x3e7c9053	0.2466443
16	0x3cdd8adc	0.027043752
17	0xbe86cca8	-0.26328015
18	0xbe518718	-0.2046169
19	0xbd10e009	-0.035369907
20	0x3e68598d	0.22690411
21	0x3dd4ce1b	0.10390874
22	0x3e508a5e	0.20365283
23	0x3ce05902	0.027386192
24	0x3d9d7ed9	0.0769021
25	0x3d9303c5	0.07178453
26	0x3de2a4eb	0.11066612
27	0xbe4d8c58	-0.20073068
28	0x3e1aa6f0	0.15102744
29	0xbd903905	-0.070421256
30	0xbcefd225	-0.02927501
31	0x3d9eada5	0.07747964
32	0xbcd3587e	-0.025799032
33	0x3e485e65	0.19567259
34	0xbd045674	-0.03230901
35	0xbd5c9f47	-0.053862836
36	0xbf0cd0fa	-0.5500637
37	0xbcf3f792	-0.029781137
38	0x3a8d0a76	0.0010760564
39	0x3e23218d	0.15930767
40	0xbd4c3164	-0.04985179
41	0x3d664a48	0.056223184
42	0xbdcfe24f	-0.10150587
43	0x3d6c8ed8	0.057753414
44	0xbc832d10	-0.016012698
45	0xbbd4d776	-0.0064954115
46	0xbe15609b	-0.14587633
47	0x3d72ceaa	0.05927912
48	0xbe869145	-0.26282707
49	0x3db51ab0	0.08842981
50	0x3d327970	0.043572843
51	0xbc1aabe5	-0.009440397
52	0x3d994283	0.07483389
53	0xbcb7be24	-0.022429533
54	0xbcf8340b	-0.030298254
55	0x3e7797e9	0.24179043
56	0xbd3d6d50	-0.046246827
57	0xbe6f0033	-0.2333992
58	0xbe080a43	-0.13285165
59	0xbd6dd2eb	-0.058062475
60	0xbd3cab03	-0.046061527
61	0x3de5045d	0.11182473
62	0x3c8b6846	0.017017495
63	0x3ee5d917	0.4489219
64	0xbe056c9b	-0.13029711
65	0x3ca526fd	0.020160193
66	0xbeb3f947	-0.3515112
67	0x3df8f57e	0.12156199
68	0x3befddf2	0.007320159
69	0x3e709766	0.23495254
70	0xbdc70ad6	-0.09718864
71	0x3d543bf3	0.051814985
72	0xbe641f13	-0.22277479
73	0xbd0f3c31	-0.034969512
74	0xbd7abe4c	-0.061216637
75	0x3c390f09	0.011295089
76	0xbd15123c	-0.036394343
77	0x3bf34ad9	0.007424694
78	0xbe61229b	-0.21985857
79	0xbd61bda6	-0.055112503
80	0xbdcc1a35	-0.09965936
81	0x3ea80cb6	0.32822198
82	0x3af23600	0.0018479228
83	0xbd239956	-0.039941154
84	0x3bd5c65f	0.006523892
85	0xbca7bd8d	-0.020476127
86	0xbbcfe272	-0.006344133
87	0x3e6d32d1	0.23163916
88	0xbe3a8aea	-0.18217054
89	0x3c3bd7ce	0.011465026
90	0xbe70f8b0	-0.23532367
91	0x3e1c2fd1	0.15252616
92	0xbcd581f1	-0.026062937
93	0x3e4ed381	0.2019787
94	0x3e462d3c	0.19353193
95	0xbd006b1d	-0.03135215

Conv6.conv.0.bias f4 [4]
0	0xbdc7b844	-0.09751943
1	0xbd2009ce	-0.03907185
2	0xbd71794b	-0.058953565
3	0xbe0bd0be	-0.13653848

Conv6.conv.1.weight f4 [4]
0	0x3def090b	0.11671647
1	0x3f8afa04	1.0857549
2	0x3dd52c7d	0.10408876
3	0x3e5f8dcb	0.21831433

Conv6.conv.1.bias f4 [4]
0	0x3d71b487	0.059010055
1	0xc00b4486	-2.1760573
2	0x3e218ca4	0.15776306
3	0xbc21dbbb	-0.009879048

Conv6.conv.1.running_mean f4 [4]
0	0xbd4d0d30	-0.050061405
1	0xbf16a9ab	-0.5885264
2	0x3dfff84f	0.12498533
3	0xbe1f7f9e	-0.15576026

Conv6.conv.1.running_var f4 [4]
0	0x3c6bea87	0.014399177
1	0x3e073fc4	0.13207918
2	0x3c9d7fbe	0.019225951
3	0x3cc5a659	0.024127172

Conv7.conv.0.weight f4 [2, 4, 3]
0	0x3e73a7bf	0.23794459
1	0x3c231cf5	0.009955634
2	0x3e105243	0.1409388
3	0x3b072417	0.0020620876
4	0xbc60a54d	-0.013711286
5	0xbf01d44f	-0.5071458
6	0xbe9bb2fb	-0.3040999
7	0xbd43b8cb	-0.047783654
8	0xbd8b948d	-0.06815443
9	0xbe490f92	-0.19634846
10	0xbd949137	-0.0725426
11	0xbe018ae0	-0.12650633
12	0x3e1a99c3	0.15097718
13	0x3baf29b0	0.0053455457
14	0x3dc387bd	0.095473744
15	0x3ade0a5f	0.0016940347
16	0xbf07fb53	-0.53117865
17	0xba540e72	-0.0008089311
18	0xbe56d678	-0.20980251
19	0xbc772666	-0.0150848385
20	0xbd935189	-0.07193286
21	0xbdf680fc	-0.120363206
22	0xbd5ddd88	-0.054166347
23	0xbda4d90f	-0.08049213

Conv7.conv.0.bias f4 [2]
0	0x3e23c43f	0.1599283
1	0xbe4d4407	-0.20045482

Conv7.conv.1.weight f4 [2]
0	0x3eb8ea4d	0.36116257
1	0x3efd5f09	0.4948657

Conv7.conv.1.bias f4 [2]
0	0xbdf4334b	-0.11923846
1	0xbe1fd710	-0.15609384

Conv7.conv.1.running_mean f4 [2]
0	0x3f118d4e	0.5685624
1	0x3e691c01	0.22764589

Conv7.conv.1.running_var f4 [2]
0	0x3d0a5833	0.03377552
1	0x3d0288b3	0.031868648

Conv8.weight f4 [1, 2, 1]
0	0x3f2ce595	0.67537814
1	0x3f426e26	0.75949323
